sample/mpp-library/src/commonMain/resources/MR/files/mnist.tflite (tflite, 408272 bytes, 4 tensors)

sequential_2/dense_4/MatMul/ReadVariableOp/transpose f4 [128, 784]
0	0x3c6c0c38	0.01440721
1	0x3a7c6180	0.0009627566
2	0xbd4c3437	-0.049854483
3	0x3c0a8220	0.008453876
4	0x3c96cbd4	0.01840774
5	0xbc31b5c8	-0.010846563
6	0x3d6739e2	0.056451686
7	0x3cff025c	0.031129055
8	0xbc5226a0	-0.012826592
9	0xbcc760f0	-0.024338216
10	0xbbe39650	-0.006945409
11	0x3bc07200	0.005872965
12	0xbbbc61db	-0.00574897
13	0x3ce11ba5	0.027479002
14	0x3ca81d58	0.020521805
15	0x3d5d69a9	0.054055844
16	0x3d9e7169	0.07736475
17	0xbcf420d0	-0.029800802
18	0xbbe359a0	-0.0069381744
19	0xbda2a8cf	-0.07942354
20	0x3d0f34de	0.034962527
21	0xbd6d9da0	-0.05801165
22	0x3c90998c	0.017651342
23	0xbd99ff62	-0.075194135
24	0xbd81af3e	-0.06332253
25	0x3d84dadd	0.06487057
26	0x3c40b648	0.011762209
27	0x3d5071ee	0.0508899
28	0xbd812c40	-0.06307268
29	0x3da20907	0.07911878
30	0xbd7feb30	-0.06248015
31	0x3d895a17	0.067066364
32	0xbd72b54b	-0.059254926
33	0xbc833503	-0.016016489
34	0x3d49e4bc	0.049290404
35	0x3d454496	0.04816111
36	0x3d40277a	0.046912648
37	0x3d9a1472	0.07523431
38	0xbdc88b6d	-0.09792218
39	0xbce9d49f	-0.028543768
40	0x3c5d53e4	0.013508771
41	0x3d0e56ea	0.034750856
42	0xbd856eef	-0.065152995
43	0xbd8525c4	-0.06501344
44	0xbd2837e5	-0.04106893
45	0xbd52c7df	-0.051460143
46	0xbdc94c3c	-0.09828994
47	0xbd175550	-0.036946595
48	0x3dc42847	0.09577995
49	0xbd1d6e1f	-0.038435098
50	0x3afc7668	0.0019261362
51	0x3c1e850c	0.009675276
52	0x3d83b023	0.0643008
53	0x3d855805	0.06510929
54	0xbd19fb8a	-0.037593402
55	0x3da4d52b	0.08048471
56	0x3cce1b54	0.025159515
57	0xbc44ade0	-0.012004346
58	0x3d5248e6	0.051339053
59	0x3b17cdbf	0.0023163406
60	0x3a32ef59	0.0006825827
61	0xbd1cef03	-0.038313877
62	0xbdea29da	-0.11433764
63	0xbce736ba	-0.028224338
64	0xbdbc582d	-0.09196506
65	0xbdcee3fe	-0.1010208
66	0xbdd931bb	-0.106051885
67	0xbdac1257	-0.084019355
68	0xbe343ff7	-0.17602526
69	0xbe8cc221	-0.2749186
70	0xbe7103c0	-0.23536587
71	0xbe66c8df	-0.22537564
72	0xbe24f1e4	-0.16107899
73	0xbe19c335	-0.15015872
74	0xbdc49fd3	-0.096007966
75	0xbd8f5db3	-0.070002936
76	0xbcf9fdaf	-0.030516474
77	0xbdd33ba6	-0.103141114
78	0x3d8db8e6	0.06920032
79	0x3d9f3b68	0.07775003
80	0xbc74ae38	-0.014934115
81	0xbaf85e28	-0.0018948959
82	0x3d00f392	0.031482287
83	0xbbc69a20	-0.0060608536
84	0xbd4e784d	-0.050407697
85	0xbd594c48	-0.053051263
86	0xbd1de75e	-0.038550727
87	0xbd021a43	-0.031763326
88	0xbe091ab5	-0.13389094
89	0x3d97d699	0.07413978
90	0xbd2e1277	-0.04249808
91	0x3c82ffde	0.015991148
92	0x3e14c194	0.14526969
93	0xbc19693f	-0.0093634715
94	0x3df672c9	0.12033612
95	0xbd896a28	-0.06709701
96	0xbe74f5ae	-0.23921844
97	0xbe4f2e81	-0.20232584
98	0xbe3353dc	-0.17512459
99	0xbe03c231	-0.12867047
100	0xbdad8965	-0.084734716
101	0xbda94981	-0.08265973
102	0xbd60e8a2	-0.054909356
103	0xbe2403c7	-0.16017066
104	0xbe008a03	-0.12552647
105	0xbe17cf60	-0.14825201
106	0xbdcbe9e4	-0.099567205
107	0xbd8d9e7e	-0.069149956
108	0xbddbbda0	-0.107295275
109	0xbd49f314	-0.049304083
110	0x3d00f114	0.03147991
111	0x3d9cb267	0.07651215
112	0xbd834f1e	-0.06411575
113	0x3ca000ea	0.019531686
114	0x3d2e9583	0.042623054
115	0x3e00d2d7	0.12580429
116	0xba2d7bf1	-0.0006617895
117	0xbd5050ba	-0.050858237
118	0x3b25ebd2	0.0025317562
119	0x3c982725	0.018573353
120	0xbc21c8b1	-0.009874509
121	0x3c02e614	0.007989425
122	0x3df7d147	0.12100463
123	0x3d8d1454	0.06888643
124	0xbdfa65fd	-0.12226484
125	0xbe38950c	-0.18025607
126	0xbe02b380	-0.12763786
127	0xbd401178	-0.04689166
128	0xbe539930	-0.20663905
129	0xbe80e1c5	-0.25172248
130	0xbe167c72	-0.1469591
131	0xbdadd4d2	-0.08487858
132	0xbda56ae3	-0.08077028
133	0xbe5a08b4	-0.21292382
134	0xbd71f2c5	-0.059069414
135	0xbe1c58a7	-0.15268193
136	0xbd40c40d	-0.04706197
137	0x3d826286	0.06366448
138	0x3e00fed3	0.12597208
139	0xbd3b448a	-0.04571966
140	0xbd96e816	-0.07368486
141	0x3d335b5a	0.04378829
142	0x3d562d6c	0.05228941
143	0x3cc6d4d4	0.024271406
144	0x3e393c5a	0.18089429
145	0x3e06a26d	0.13147898
146	0x3d19a8a1	0.037514333
147	0xbbda3da2	-0.0066601792
148	0x3d6696b4	0.056296065
149	0x3df2fddd	0.11864827
150	0x3da9b4a3	0.08286407
151	0x3e4a9e2b	0.19786899
152	0x3e29acf4	0.16569883
153	0x3dfb0443	0.12256672
154	0x3c571c2a	0.013129273
155	0x3b59caa0	0.0033232346
156	0xbe379681	-0.17928506
157	0xbde66de4	-0.11251429
158	0xbda82aba	-0.082112744
159	0xbe58c943	-0.21170525
160	0xbe31d378	-0.17365825
161	0xbe91a4a0	-0.2844591
162	0xbe8b492d	-0.27204266
163	0xbe43559d	-0.19075628
164	0xbd13d541	-0.036092047
165	0x3c609762	0.0137079675
166	0xbd340742	-0.043952234
167	0xbcf308b7	-0.029667241
168	0x3d4b7792	0.049674578
169	0x3d3325f6	0.043737374
170	0x3d8c573f	0.06852578
171	0x3e29bc08	0.16575634
172	0x3e0161b0	0.12634921
173	0xbbed74a2	-0.0072465697
174	0x3cac0a61	0.021001043
175	0x3d1171f6	0.035509072
176	0x3e2e3f48	0.17016327
177	0x3df62f7e	0.12020777
178	0x3e40756f	0.18794797
179	0x3e5beb2b	0.21476428
180	0x3e1f4273	0.15552692
181	0x3e9dec81	0.308445
182	0x3e80b34a	0.25136787
183	0x3e3ca10f	0.18420814
184	0xbcc82b44	-0.024434693
185	0xbd178301	-0.03699017
186	0xbd8e428d	-0.06946287
187	0xbe8f48c4	-0.27985203
188	0xbe69e5e7	-0.22841607
189	0xbe7a2ffe	-0.2443237
190	0xbe7a99af	-0.24472688
191	0xbe1d9597	-0.15389095
192	0xbe638b48	-0.222211
193	0x3cc7da5f	0.02439612
194	0xbd46514f	-0.048417386
195	0xbd8243cd	-0.06360588
196	0xbd91e59a	-0.07123871
197	0x3d9fc382	0.07800962
198	0x3df7a972	0.12092866
199	0x3e84bde5	0.25926128
200	0x3de8db92	0.11370005
201	0xbdeaaabf	-0.114583485
202	0x3e249fac	0.16076535
203	0x3d48b914	0.04900463
204	0x3e02ce4e	0.12774011
205	0x3e2f0ff7	0.17095934
206	0x3e03e1fd	0.12879176
207	0x3dd874ee	0.105691776
208	0x3e473e4e	0.19457361
209	0x3e83917f	0.25696942
210	0x3e03360f	0.1281359
211	0x3ddce739	0.1078629
212	0x3d44dd4c	0.048062608
213	0x3d083d14	0.033261374
214	0xbe244b43	-0.16044335
215	0xbe616dc3	-0.22014527
216	0xbe7c2846	-0.24624738
217	0xbeb1bad2	-0.34712845
218	0xbe854c82	-0.26034933
219	0xbe2e73ca	-0.17036358
220	0xbd8c0561	-0.068369634
221	0xbcc3832f	-0.023866264
222	0xbd9d454e	-0.076792344
223	0xbbb1f55f	-0.005430862
224	0xbd582664	-0.052770987
225	0x3cfbd903	0.030743128
226	0x3d09edef	0.033674177
227	0x3db37eb1	0.08764399
228	0x3df75ad0	0.12077868
229	0xbd0919be	-0.033471815
230	0xbc5791e5	-0.013157343
231	0x3d9c02b3	0.07617702
232	0x3e530dc5	0.20610721
233	0x3d8f13d3	0.06986203
234	0x3e438cc3	0.19096665
235	0x3e0867dc	0.13320869
236	0x3e418953	0.18900041
237	0x3e1fe248	0.15613663
238	0x3de54dae	0.11196457
239	0x3d2c50ed	0.042069364
240	0x3d3e1439	0.046406005
241	0x3b218c4e	0.0024650279
242	0x3da55b2d	0.08074031
243	0x3d9a7a95	0.07542912
244	0xbe14e781	-0.14541437
245	0xbe225271	-0.15851761
246	0xbe2433fa	-0.16035452
247	0xbe6ecae3	-0.23319583
248	0xbd8755c2	-0.06608154
249	0xbdacdfc0	-0.084411144
250	0x3cd56bbc	0.026052348
251	0x3d241791	0.040061537
252	0x3d367906	0.04454901
253	0xbd203c75	-0.039120156
254	0x3c022db4	0.007945467
255	0x3d81cb5e	0.06337617

sequential_2/dense_4/MatMul_bias f4 [128]
0	0xbdd4929e	-0.103795275
1	0x3d92d9eb	0.07170471
2	0xbd8db11c	-0.069185466
3	0x3c8643ab	0.016389688
4	0xbdd32952	-0.103106156
5	0x3e18199f	0.14853524
6	0x3ddf5dd2	0.10906567
7	0x3dc62890	0.096757054
8	0x3da2d1a3	0.07950141
9	0x3cba81f4	0.022767045
10	0x3d953962	0.072863355
11	0xbc6bc8d5	-0.014391144
12	0x3e72fe16	0.23729739
13	0x3da6b01f	0.08139061
14	0x3d308fdd	0.04310595
15	0xbd26bed9	-0.04070935
16	0x3db3f78a	0.08787449
17	0x3dab2a43	0.0835767
18	0xbd58349a	-0.05278454
19	0xbc5c54f6	-0.013447991
20	0xbad48e39	-0.0016216702
21	0xbc8e0b72	-0.017339442
22	0x3dddc46d	0.10828481
23	0x3dcd0d78	0.100123346
24	0x3dc05267	0.09390717
25	0x3d3aaca2	0.04557479
26	0x3ce6113c	0.02808439
27	0x3d4896cb	0.048971932
28	0xbdf32f34	-0.11874238
29	0x3d16fcc5	0.036862154
30	0x3cd76e8f	0.026297836
31	0xbe01046c	-0.12599343
32	0xbd26fe15	-0.040769655
33	0x3d775d09	0.06039146
34	0xbbfffaee	-0.0078118956
35	0x3e010102	0.1259804
36	0x3cf91632	0.030406091
37	0xbd8f8c11	-0.070091374
38	0x3dce3cf6	0.10070221
39	0xbdcc3aa8	-0.09972125
40	0xbd25cb1c	-0.040476903
41	0x3c128a86	0.008944159
42	0x3dbd9823	0.092575334
43	0x3c6087d0	0.013704255
44	0x3d3dc87d	0.04633378
45	0xbd707eba	-0.058714606
46	0x3e1717c1	0.14755155
47	0x3cc3fd8a	0.023924608
48	0x3cad8020	0.021179259
49	0xbd01b11f	-0.031663056
50	0x3d47935b	0.048724514
51	0x3d540a99	0.05176792
52	0xbd162eca	-0.036665715
53	0x3cf82fbb	0.030296197
54	0xb9fc9713	-0.00048177745
55	0x3c817084	0.015800722
56	0x3db59c26	0.088676736
57	0x3dedf6fd	0.11619375
58	0xbd1a53be	-0.03767752
59	0xbc26c460	-0.010178655
60	0xbcf7839c	-0.030214123
61	0x3cf7c115	0.030243436
62	0x3dac6a1c	0.08418676
63	0x3c606974	0.013697017
64	0xbc5a9c3c	-0.013342913
65	0x3d092553	0.03348286
66	0x3dbf9d11	0.0935613
67	0xbcaef9ff	-0.021359442
68	0x3d01fb3b	0.031733733
69	0x3d3fdacd	0.046839524
70	0xbd8da376	-0.06915943
71	0xbda47329	-0.080297776
72	0x3d787ccd	0.060665894
73	0xbda812e3	-0.08206727
74	0x3c4a9338	0.012364201
75	0x3c2202b1	0.009888337
76	0x3c8ef091	0.017448695
77	0x3cada3fd	0.02119636
78	0x3e16fa50	0.14743924
79	0x3e375310	0.1790278
80	0x3d9b29de	0.07576345
81	0x3d8e614c	0.06952152
82	0x3e14a92f	0.14517663
83	0x3cb6b1e5	0.022301624
84	0xbd0b4196	-0.033998094
85	0x3d98f7f1	0.07469166
86	0x3dad4b17	0.08461588
87	0xbda48d19	-0.08034725
88	0xbd723710	-0.059134543
89	0x3da1e10e	0.07904254
90	0x3dc566e8	0.096387684
91	0xbc9e504c	-0.019325398
92	0x3cfdccaf	0.03098139
93	0xbce8fb9a	-0.028440285
94	0x3e521cdc	0.20518821
95	0x3e13f734	0.1444977
96	0x3d39907e	0.045303814
97	0x3d31bbf1	0.043392126
98	0x3c820885	0.015873203
99	0xbdca39e3	-0.09874322
100	0xbcaaded1	-0.0208582
101	0x3ce1e6de	0.027575906
102	0xbd8e2b21	-0.0694182
103	0xbbb4e739	-0.005520728
104	0x3cafff7d	0.021484131
105	0xbc520118	-0.012817644
106	0xbd2c6b67	-0.042094614
107	0x3d9aabea	0.07552321
108	0x3be21f40	0.006900698
109	0xbe3744ab	-0.17897289
110	0xbcdd0a80	-0.026982546
111	0x3ddf6acf	0.10909044
112	0xbc201fca	-0.009773204
113	0x3d2138d5	0.03936084
114	0x3cd4ee18	0.025992438
115	0x3a110d9c	0.0005533339
116	0xbcf9d25d	-0.030495817
117	0xbcff175c	-0.031139068
118	0x3de592fa	0.11209674
119	0xbd711cc3	-0.05886532
120	0xbd3b61a5	-0.045747418
121	0x3da2ab65	0.07942847
122	0x3c08d6a4	0.008351956
123	0x3d1a707d	0.037704933
124	0x3dbcadf8	0.092128694
125	0x3d913450	0.07090056
126	0x3d9b293b	0.075762235
127	0x3b677c60	0.0035321936

sequential_2/dense_5/MatMul/ReadVariableOp/transpose f4 [10, 128]
0	0x3e818d46	0.25303096
1	0xbdc6f725	-0.09715108
2	0x3d0bd617	0.03413972
3	0x3d4a4626	0.049383305
4	0x3e0e569c	0.13900226
5	0x3d644477	0.055729356
6	0x3e1114c0	0.14168072
7	0xbe36f10c	-0.1786539
8	0xbe53411a	-0.20630303
9	0xbe19b1c2	-0.15009215
10	0x3db129d0	0.08650553
11	0x3de50b5d	0.11183808
12	0x3e057885	0.13034256
13	0xbea7699b	-0.32697758
14	0x3e7cd9fc	0.2469253
15	0x3ba683c8	0.0050816275
16	0xbc9aaada	-0.018880296
17	0x3db3bc53	0.08776154
18	0x3eaf9c38	0.34298873
19	0x3de85552	0.113443986
20	0x3e998350	0.29982996
21	0xbe9786bd	-0.29594985
22	0xbe6284db	-0.22120993
23	0xbe596253	-0.21228914
24	0x3e40fc7d	0.18846317
25	0x3e8759ad	0.26435605
26	0xbdf57084	-0.11984351
27	0x3daeb06c	0.085297436
28	0x3d81eaae	0.0634359
29	0x3e385e0e	0.18004629
30	0x3d117c9d	0.03551923
31	0xbebde7df	-0.37090966
32	0xbdf11ee0	-0.11773467
33	0xbe5df1fd	-0.21674342
34	0xbf05c9ac	-0.5226085
35	0x3e21097b	0.15726273
36	0x3d40ffd1	0.047118966
37	0xbf3e893a	-0.7442814
38	0xbd63f046	-0.055649064
39	0x3e4b1369	0.19831623
40	0x3d91574a	0.07096727
41	0xbe86e1bf	-0.26344106
42	0xbd009734	-0.0313942
43	0x3e98ecd5	0.29868189
44	0xbe9bff96	-0.30468434
45	0xbc955d08	-0.018232837
46	0x3e439dbf	0.19103144
47	0x3e218384	0.15772825
48	0xbe45f31d	-0.19331022
49	0xbd95ae9b	-0.07308694
50	0xbe35a8c6	-0.17740163
51	0xbe544c4d	-0.20732231
52	0x3e1d52de	0.15363643
53	0xbec58445	-0.38577476
54	0xbd8ea82a	-0.069656685
55	0x3e559f57	0.20861565
56	0x3e0c8add	0.13724847
57	0xbf4eb7fa	-0.80749476
58	0xbe6bb37e	-0.2301769
59	0x3e035f91	0.12829424
60	0x3e99062a	0.29887515
61	0x3e06e70b	0.13174073
62	0xbec91ccc	-0.39279783
63	0x3ddbe454	0.107369095
64	0xbeb42c91	-0.3519025
65	0xbd983778	-0.07432455
66	0xbf266952	-0.65004456
67	0x3e7dd2fe	0.24787518
68	0xbe5d837e	-0.21632192
69	0xbe4b7d8b	-0.1987211
70	0x3e56723c	0.20942014
71	0x3e206193	0.15662222
72	0xbe265308	-0.16242611
73	0xbc16adaa	-0.009196678
74	0xbed46194	-0.41480696
75	0xbe2dfa47	-0.16990004
76	0x3e053c5b	0.13011305
77	0x3e3fc907	0.1872903
78	0xbe1dea30	-0.15421367
79	0xbeea0466	-0.4570648
80	0x3da91dc3	0.0825763
81	0xbf11329a	-0.56717837
82	0xbf0a090c	-0.53920054
83	0xbec60862	-0.3867827
84	0xbf1a8f70	-0.6037512
85	0xbec6f0e8	-0.38855672
86	0xbe055049	-0.13018908
87	0xbd60c192	-0.054872103
88	0x3e9342ce	0.28761905
89	0xbee569d1	-0.44807294
90	0xbe2edd60	-0.17076635
91	0xbd926efa	-0.07150073
92	0xbf19cd7d	-0.60079175
93	0xbee43e3b	-0.44578728
94	0xbe207d31	-0.15672757
95	0xbf15598d	-0.5833977
96	0xbea131c3	-0.31483278
97	0x3e4a6126	0.19763622
98	0xbe8a6954	-0.27033484
99	0x3ded2f74	0.115813166
100	0x3e7636b3	0.24044304
101	0xbedcd820	-0.4313364
102	0xbcf6c59b	-0.030123523
103	0xbf07a5ec	-0.5298755
104	0x3d81e2d6	0.06342094
105	0xbe313acb	-0.17307584
106	0xbe22314f	-0.15839122
107	0x3e7cf1fa	0.24701682
108	0x3e78aaff	0.2428398
109	0xbdcc2b3d	-0.099691845
110	0x3ea922ca	0.33034354
111	0xbda50cd9	-0.08059091
112	0xbdd02c4e	-0.101647004
113	0x3ea128c5	0.31476417
114	0xbc2f58f2	-0.010702359
115	0xbe18cb20	-0.14921236
116	0xbe2d945a	-0.16951123
117	0xbe69a66d	-0.22817393
118	0x3dc03e36	0.09386866
119	0x3eb01b1f	0.34395692
120	0x3e904238	0.2817552
121	0xbe2f3e22	-0.17113546
122	0x3e7033f4	0.23457319
123	0xbf216204	-0.63040185
124	0xbe03af74	-0.12859899
125	0x3de31c5a	0.11089392
126	0xbd90a02d	-0.07061801
127	0x3ddcb021	0.107757814
128	0xbf076b25	-0.52897865
129	0x3eb6c7ba	0.35699254
130	0x3e62dd7b	0.221548
131	0x3eb9b13e	0.36268038
132	0xbea4064e	-0.3203606
133	0xbdf117f6	-0.11772148
134	0x3ee08dad	0.4385809
135	0x3d888324	0.06665638
136	0xbe2a510d	-0.16632481
137	0xbea165ce	-0.31522983
138	0xbebaa48b	-0.3645366
139	0x3d2eee49	0.042707715
140	0xbf251487	-0.6448445
141	0x3d52e00f	0.05148321
142	0xbe77d731	-0.24203183
143	0xbddef49a	-0.10886498
144	0xbeb316b5	-0.34978262
145	0xbec84d2a	-0.39121372
146	0xbf0e76f5	-0.55650264
147	0x3dec7c62	0.11547162
148	0x3cb99bb3	0.022657251
149	0xbe81c0e0	-0.25342464
150	0x3e47e286	0.19520006
151	0xbe8536f7	-0.26018497
152	0xbee8bc06	-0.4545595
153	0x3dbcfb71	0.09227646
154	0x3ebe5307	0.3717272
155	0x3c27e866	0.010248279
156	0x3e845c64	0.25851738
157	0x3e2be3b5	0.16786082
158	0xbce8baec	-0.028409444
159	0xbee1ab45	-0.4407598
160	0xbdf051df	-0.11734366
161	0xbf036e2a	-0.5133997
162	0xbdcea44e	-0.100899324
163	0x3e71444d	0.23561211
164	0x3e84aca5	0.25912967
165	0x3bde8434	0.006790662
166	0xbb0b6d4c	-0.0021274863
167	0xbd9c143d	-0.07621048
168	0xbcf90c77	-0.030401452
169	0xbcacdf5b	-0.021102598
170	0xbe942d40	-0.28940773
171	0xbbe6586a	-0.0070295827
172	0x3ea02102	0.31275183
173	0xbf26ed92	-0.65206254
174	0x3e86d79c	0.26336372
175	0x3d9dabbc	0.07698771
176	0x3e49336a	0.19648519
177	0x3e8decd0	0.27719736
178	0xbe5e9457	-0.21736275
179	0x3cb52c1f	0.022115765
180	0x3e65c387	0.22437869
181	0x3e345b74	0.17613012
182	0xbefae7d7	-0.49005005
183	0x3d9ffbd2	0.07811703
184	0xbea1bffa	-0.3159178
185	0xbd15e382	-0.03659392
186	0xbcfa8d02	-0.030584816
187	0x3e5c51cc	0.21515578
188	0x3d94754f	0.07248937
189	0x3e20c555	0.15700276
190	0x3e29b3e6	0.16572532
191	0xbe565a37	-0.20932852
192	0x3dd63d3e	0.104609
193	0xbe91232f	-0.28347155
194	0x3e0c2f6e	0.13689968
195	0x3de22b5c	0.110434264
196	0x3e5bd185	0.21466644
197	0x3e25ce3f	0.16191958
198	0xbe5d61df	-0.21619366
199	0xbef2cebd	-0.47423354
200	0xbef9bcc9	-0.48776844
201	0x3da4c6b4	0.08045712
202	0x3dfe4532	0.12415542
203	0x3dac5b11	0.08415807
204	0xbea71c78	-0.32638907
205	0xbdae17ee	-0.08500658
206	0x3e65ed8b	0.22453897
207	0x3e5ed4fa	0.21760932
208	0xbee66b8a	-0.4500392
209	0x3e51e4a1	0.20497371
210	0x3d44e066	0.048065566
211	0xbf34eea7	-0.70676655
212	0x3e8d7f00	0.27635956
213	0x3e36f024	0.17865044
214	0x3e430cf9	0.19047917
215	0x3dc7a43b	0.09748121
216	0x3e2cd49e	0.16877982
217	0x3c851673	0.016246056
218	0x3ef4ef86	0.47838992
219	0x3db770fc	0.08957097
220	0xbecf5727	-0.4049618
221	0x3dc64e85	0.09682945
222	0x3e5f9dd7	0.21837555
223	0x3e4c8c38	0.19975364
224	0xbeb98124	-0.3623134
225	0xbf20a952	-0.6275836
226	0x3e705557	0.23470055
227	0xbd43bd39	-0.04778788
228	0x3e216cc9	0.15764154
229	0xbe4e2a06	-0.20133218
230	0xbea5094f	-0.32233664
231	0xbdc2c6a7	-0.09510546
232	0x3dcaa814	0.098953396
233	0xbd992caa	-0.07479222
234	0x3e8c72ac	0.27431238
235	0x3eaabed3	0.33348712
236	0xbc47ba53	-0.012190419
237	0x3e881504	0.26578534
238	0xbe7d20e9	-0.24719585
239	0xbf2ff89a	-0.6873871
240	0x3eacbb6f	0.3373675
241	0xbb1044c6	-0.0022013648
242	0x3d2b48fd	0.041817654
243	0x3f035ae8	0.51310587
244	0xbe10ce01	-0.14141084
245	0x3d15c087	0.03656056
246	0xbed6b910	-0.41938066
247	0xbdd3c3ec	-0.103401035
248	0xbe8dac87	-0.2767069
249	0xbe1ca17b	-0.15295975
250	0xbc92bfa4	-0.017913647
251	0x3d782b9d	0.060588468
252	0xbc076991	-0.008264915
253	0x3d920b92	0.07131113
254	0xbdac6fc0	-0.08419752
255	0x3edaa6c5	0.4270536

sequential_2/dense_5/MatMul_bias f4 [10]
0	0xbda312fe	-0.07962607
1	0xbd6bd163	-0.057572734
2	0xbc3d8294	-0.011566777
3	0xbd64767f	-0.05577707
4	0x3d9820c0	0.074281216
5	0x3d81a40d	0.06330118
6	0xbbc8dc71	-0.0061297943
7	0xbd5a4425	-0.053287644
8	0x3e148b9e	0.14506385
9	0xbd94a399	-0.07257766
